landing/titanic_weights.npz (npz, 30598 bytes, 8 tensors)

w1 f8 [14, 64]
000000 27 e7 8d 3c 59 ba de bf d1 a8 64 c4 ec 0b e3 3f
       -0.4801238147116344 0.595205672817679
000010 9e 88 c1 f2 30 f2 d7 bf 9d e4 08 80 fd 63 c4 3f
       -0.3741571779884313 0.15930145980545243
000020 89 24 3e c7 69 9f 87 bf 0d bd 2f 48 9a 60 c0 3f
       -0.011534525292306934 0.1279480793450393
000030 48 77 aa b6 f4 5a e4 bf e2 99 70 f1 e5 e1 e1 3f
       -0.6361030166333217 0.5588254657384903
000040 57 e9 10 91 43 d4 b9 3f 45 b4 5e 2d 18 a3 d8 bf
       0.10089514056827419 -0.3849544947686961
000050 c7 06 49 39 98 8c e5 3f 2b f2 75 87 73 a2 b3 bf
       0.6734124297001579 -0.0766975599016823
000060 33 d7 09 32 de fe cf bf 6c 60 d0 74 70 71 cf bf
       -0.24996545260699463 -0.24564939216429893
000070 2a 8b 08 bf 47 cf e0 3f 2b 27 ca 6e 12 96 d0 3f
       0.5253027659531189 0.25915966815283537
000080 fb f9 5a c1 b4 a2 c5 bf 6b 01 48 c7 60 ed cb 3f
       -0.16902789536648286 0.21818170290499536
000090 6b a3 7a 3a b2 dc e8 bf e2 29 07 58 8d 8d d6 3f
       -0.7769404546898903 0.35238965603335093
0000a0 92 d3 5c 52 35 b4 7d 3f 1e 68 90 82 69 13 a2 bf
       0.007251938140872565 -0.03530435293960486
0000b0 8e b8 e9 15 2a 40 bd bf 79 65 a7 48 d9 03 d9 3f
       -0.11426032099709202 0.3908599099646249
0000c0 54 bb 5e a4 ac 8f f1 bf d4 d9 06 29 e5 92 e5 3f
       -1.0975767536835592 0.6741815377525264
0000d0 0b a8 1a d1 f9 5b e2 3f c3 04 97 95 27 57 d1 bf
       0.5737275203766797 -0.27094449623480105
0000e0 af 85 40 7b d7 b0 d3 3f 29 8f f5 1a b1 b6 e3 bf
       0.3076685622819139 -0.6160512472674543
0000f0 3c 3f 16 1f a9 c6 db bf 9c c9 2f 20 13 0d e0 bf
       -0.4340002826293021 -0.5015960339208507
000100 ad 4f 81 78 e8 02 d7 3f 9f 45 cc 31 ba 49 da bf
       0.35955249565199204 -0.4107499586399061
000110 2a f5 df 28 05 da d2 bf 8f f1 84 4c ed bf d4 bf
       -0.29455689422305176 -0.3242142913111587
000120 ed f3 8b fd eb ad da 3f 1c 4e 7f 28 61 21 e5 bf
       0.4168653465310957 -0.6603246489489183
000130 d8 53 45 30 ce e3 cf bf 6c 19 15 df d8 32 d4 3f
       -0.24913956982587027 0.3156034639872789
000140 64 82 e2 64 03 79 d8 3f 03 0f 36 b3 c2 56 c5 bf
       0.38238606311828094 -0.16671022177262537
000150 db f7 53 99 b5 e3 af 3f 0e dc 0f f1 30 6a e2 3f
       0.06228415962867447 0.5754627903214684
000160 ff 07 bf 8e 5a 4c b4 bf 3e 47 7f 20 6c 08 e0 3f
       -0.07929006562247308 0.5010281214438022
000170 31 6d d1 bf 58 63 ea 3f f5 32 52 57 46 7a c6 bf
       0.8246272798964239 -0.17560652984356975
000180 12 97 d2 7b 70 69 a3 bf ae b8 7f ac 07 6b e7 bf
       -0.037913813700738555 -0.7318151826018686
000190 23 f8 95 24 a3 4c ce 3f 4f 6d dc c2 fe 77 d7 3f
       0.23671378408829566 0.36669892339133
0001a0 97 17 c3 23 f6 8b cf 3f 03 cc 4d 84 4e 8d e5 bf
       0.2464587854976201 -0.6734993537960466
0001b0 56 b7 f7 93 1d 26 e0 3f 64 b5 33 0a 00 d9 e6 3f
       0.5046527757637971 0.7139892768151808
0001c0 8f 9f ab 7a 58 07 ba 3f 96 4e 61 78 db 95 dc bf
       0.10167458529360672 -0.4466465640627829
0001d0 f3 1b a1 d7 ed 9e db bf ee 15 f7 a7 65 bb 60 bf
       -0.4315752607112124 -0.002042482897851575
0001e0 53 35 1d 1b 9c 7f e2 bf dd 35 83 b3 e8 10 dc bf
       -0.578077366788117 -0.4385320427944331
0001f0 6e 5f 66 73 a0 43 c6 bf 97 60 dd 62 5e b4 d9 bf
       -0.17393880495796615 -0.4016338315464138
000200 b1 ad 5f fd 41 13 d9 bf fb 21 1e e3 a8 43 dd bf
       -0.39180040114907927 -0.45725462130988576
000210 81 23 ad ed a7 fd d7 3f f3 2b ad 9d a6 8c e0 bf
       0.374856931787285 -0.5171692924135399
000220 85 c8 6f 13 43 92 b2 3f a5 95 70 a0 d9 68 d0 bf
       0.07254428123977348 -0.2563995425028572
000230 2e 43 21 17 92 6e a0 bf b1 8b 06 a2 72 b4 c7 bf
       -0.0320935872301845 -0.18519432937054384
000240 40 06 5c c5 b6 b9 ba bf fd 7b f3 b0 ab 3a cb bf
       -0.10439626997324414 -0.21272798671904516
000250 bd 6e 1c 7c 23 ec c0 bf e6 b0 1f a0 1f 06 d2 3f
       -0.13220637855635245 0.2816237510403553
000260 c3 c6 25 6e a6 3f d5 3f 58 fe 99 9b 26 87 ce bf
       0.33200989491079386 -0.23849947545749006
000270 0e e1 13 34 83 d4 c3 3f 6d bb 49 e7 b4 04 ef bf
       0.154922867229978 -0.9693245427459779
000280 4c 73 2b 44 23 3f 84 3f a7 98 82 82 23 8a b2 bf
       0.009886050718188287 -0.07242032943995245
000290 de 65 73 f9 f8 76 b3 bf e5 0a 15 fb 55 07 d4 bf
       -0.07603412714106336 -0.31294774551149224
0002a0 63 51 78 31 3a 5e cb 3f ad 63 ca 59 1d 49 d0 bf
       0.21381308951880404 -0.2544625641690413
0002b0 b4 7b ed bf c6 06 e0 bf 54 1f b8 fd 07 73 d4 3f
       -0.5008271931254655 0.3195209481932484
0002c0 6e 8c 95 bb 15 da db 3f 4d 38 0a d4 46 f9 e5 bf
       0.43518584555403705 -0.6866792813687056
0002d0 57 59 80 27 1b d4 c0 bf 8e 7d 52 94 e2 69 dd bf
       -0.13147296360757352 -0.4595877121409665
0002e0 0c 58 a3 3f 6d ee e5 3f 11 40 b9 cb 6c 91 d7 3f
       0.6853548281603721 0.36825103659521213
0002f0 aa f4 f0 52 79 90 da 3f 89 6a a6 2c 8e 67 db bf
       0.4150679883931142 -0.42819551811559414
000300 f5 aa 2f 14 fd 2b dd 3f 52 15 8a f4 d2 9e b4 bf
       0.45580985041912864 -0.0805484625835409
000310 6e 15 c1 7c ae a0 cc 3f be d8 4f 64 8f 11 c4 3f
       0.22365361300959868 0.1567858924678997
000320 a1 3d cd 8d 60 bb c4 3f e4 70 ea 6c 68 e7 c9 bf
       0.1619682972327441 -0.20237450903085297
000330 00 e4 7f e1 0d 8f d5 3f 6f c8 92 9f 40 37 c6 bf
       0.336856336798121 -0.17356117049854755
000340 1e 0c 98 e6 6a bb d7 3f f2 0f 43 2a ea e1 e0 bf
       0.3708140613454719 -0.5275774789265582
000350 01 f5 34 f6 73 91 cd bf fb b3 eb 45 3e 5f d0 3f
       -0.23100137254542832 0.25581318691439464
000360 1a 46 36 f7 c5 3a db bf de 44 e2 ae 0b 3b d3 3f
       -0.425462237756706 0.30047885969641
000370 e8 d4 50 e5 31 7e d4 3f d7 1a 1c 6d a6 12 d6 3f
       0.32020232576480945 0.3448883119130363
000380 80 c8 eb f2 c8 67 ca bf 1c d1 e6 f4 30 ce d3 3f
       -0.20629226552370383 0.30945991436171183
000390 4b 10 55 ae f3 5c c4 3f f7 99 53 80 0c 84 bd 3f
       0.1590866662246547 0.11529615529034475
0003a0 e7 ef 62 7a f8 d4 e1 bf 6d 00 1c 63 04 55 ce bf
       -0.5572473898278049 -0.23696951712918538
0003b0 88 f8 9d e0 d0 f6 f1 3f 9d 75 1f 74 c2 24 c0 bf
       1.1227577947716174 -0.12612181348860654
0003c0 5c 23 ba 79 0a a4 cc bf 55 bf cb 41 ff 39 ca bf
       -0.22375613158899454 -0.20489493096055847
0003d0 7a 92 cd 78 90 b4 cf 3f b0 9a e7 f4 d7 34 bf bf
       0.2476978864534834 -0.1219000790511966
0003e0 ec f6 cc 61 0e 75 c0 3f 2c 65 85 8f 57 54 c6 3f
       0.1285722711126519 0.17444891460289946
0003f0 2a c8 3e 02 58 32 d2 3f 74 36 38 93 a9 da c4 3f
       0.2843227407385053 0.16292304695564364
000400 7f 7d b6 b0 1e 61 e6 bf a0 2a bc 5d a8 f0 c3 3f
       -0.6993554545805835 0.15578178955941713
000410 88 5f 93 d1 41 fa bc 3f 0c d3 b7 95 a5 e4 d3 3f
       0.11319362036317504 0.31083049412636465
000420 8b 77 09 e5 48 d4 cb 3f 4b f8 81 78 0d 50 cd bf
       0.21741591628500276 -0.2290055120865325
000430 6f 67 4f 9c d8 39 a6 bf 05 f0 25 e6 35 8c e0 bf
       -0.04341008098681597 -0.5171155448038013
000440 a9 7a 45 ac 88 22 e6 3f 42 5d 60 47 e4 e3 c3 3f
       0.6917155613590086 0.1553922031896296
000450 4e b7 e3 72 06 fb af 3f de f6 e4 d3 74 a4 a6 3f
       0.06246204521617803 0.0442234524402758
000460 13 a1 57 9d 6a f3 c9 bf 05 99 ad 15 98 bd d6 bf
       -0.20274098093728607 -0.3553219043445924
000470 3c 84 d1 bd 86 87 c4 3f 44 77 c7 b5 f9 3f c2 3f
       0.16038593548276647 0.14257737518249247
000480 08 f3 fd 29 12 13 d7 bf 79 fd cb be 5d e4 da bf
       -0.3605389986112617 -0.4201883662462574
000490 c5 10 4e 60 35 8e c1 bf 23 e7 f0 7b e9 de b1 bf
       -0.1371523590315801 -0.06980761791137673
0004a0 8f 07 fc 39 72 0c e3 3f 8e 76 b6 92 3f 0b de 3f
       0.5952693111905648 0.4694365437261262
0004b0 a0 79 8f 3e f3 a0 c8 bf b5 65 26 9e 95 74 9d bf
       -0.19241180948934034 -0.02876504686137134
0004c0 3a 9c e9 10 b0 5c bb 3f 4b cf cf 9c 65 0f e6 3f
       0.10688305294898806 0.6893795073251366
0004d0 f1 9a 8a 6b 9e 92 d5 bf 99 9b 50 cd 99 86 c2 3f
       -0.33707390310375646 0.1447326900972399
0004e0 ba 0a b2 03 35 3d c6 3f e3 e5 a6 ed e2 7f e8 3f
       0.17374289207881138 0.765611137546497
0004f0 bb f7 05 37 a0 74 a1 bf 05 c6 c6 73 d9 41 c8 3f
       -0.034092909542763526 0.18950956490657248
000500 68 23 b5 fc 5d 97 cf bf d5 54 2e 2b 79 0e c0 3f
       -0.24680685843693628 0.12544169052549728
000510 f1 b8 f8 1c 97 01 ca bf 3e ce bf 4f 59 0d c0 bf
       -0.20317353167178667 -0.12540737527852913
000520 a8 63 07 98 cc 6b d0 bf 03 35 3d fe ae 8a b8 bf
       -0.2565795406968001 -0.09586614329346692
000530 60 10 b9 81 dd 28 eb 3f ce 22 92 f9 50 0a e1 bf
       0.8487384351397047 -0.5325093149595774
000540 45 63 d9 f3 64 cf c2 bf c8 22 f8 0d be be d7 3f
       -0.14695417315194895 0.3710169922274358
000550 32 b4 36 e2 26 54 d3 bf ed 95 f7 7f 94 ec e1 bf
       -0.3020112237089193 -0.5601294040067707
000560 16 83 50 40 71 73 b3 3f 77 5c 74 8e de cb e7 3f
       0.0759802610414336 0.7436363966288714
000570 b5 66 75 3c 50 63 c5 3f cf 1f e2 59 1f 62 cf 3f
       0.16709330513076784 0.24518195999939826
000580 18 3a 8f 36 3c 9b ce bf 75 8e 62 7f e4 02 98 3f
       -0.23911240257298583 0.02344853427406553
000590 d3 47 c0 06 c1 b7 e4 bf 47 44 cd 7d 06 03 e5 3f
       -0.6474309093339293 0.6566193062846047
0005a0 1d fd a4 38 82 84 b5 bf 75 5d d4 0a 50 15 8b bf
       -0.08405317194864322 -0.013224244432918234
0005b0 2b 39 f9 33 a6 88 d2 bf 56 cd 71 07 2a 55 c5 3f
       -0.2895904071382513 0.16666150439741995
0005c0 9b be 87 91 cd 89 e9 3f 08 f8 5c 91 68 78 d1 bf
       0.7980716555011499 -0.27297414966221867
0005d0 fa aa 14 28 bb 9d ea 3f 63 84 d2 d7 02 45 d2 bf
       0.8317542822672686 -0.2854621036186186
0005e0 41 2d 84 6e 96 70 e0 bf 81 01 1e 73 ba 7d a8 3f
       -0.5137436064264095 0.04783423094977746
0005f0 ca 34 5d 91 c7 f7 d2 bf fd 19 cf 72 60 1a e8 3f
       -0.29637326427184674 0.7532198183405964
000600 9f c0 d8 f6 a8 ef d6 bf b8 1a 85 50 40 5e b4 bf
       -0.35837768655893315 -0.07956315961664984
000610 88 72 18 e4 e9 c5 dc bf fb 69 94 8f ce 79 e3 bf
       -0.44957968974066675 -0.6086190037052001
000620 71 2b 50 82 d0 ec e2 3f ee f4 33 1d ab 4b c9 3f
       0.5914080186060869 0.1976217167465743
000630 32 a9 0a 3a 2e 0b d6 bf c8 49 54 be d7 1c c2 3f
       -0.3444324080288822 0.14150521081371736
000640 8d 08 62 0f b6 ec d7 3f 74 be 86 af 6c 65 b6 3f
       0.37382270338287854 0.0874851158648598
000650 51 e8 d2 bf 9c 8e c8 bf e9 3e fb 04 62 41 ca 3f
       -0.19185218206786428 0.20512032740815947
000660 52 a6 8f 51 86 45 c9 3f 8a 09 7e de bf eb e7 bf
       0.19743422491528634 -0.7475280137589817
000670 ce 72 b2 8d 8f 8b c3 3f 07 7f a8 27 bc 64 ce bf
       0.15269655627061812 -0.23744918762621856
000680 02 e3 ee b1 c5 5f c2 3f 69 57 c4 89 0a 72 d4 bf
       0.14354773700849682 -0.31946052030376976
000690 ad d9 b6 e1 50 5b ca bf 30 ca 24 7c ff b8 a2 3f
       -0.20591174145893146 0.03656767263818883
0006a0 f9 ab 9b 05 2f d0 b9 3f 46 72 59 b2 f7 01 97 bf
       0.10083288084904031 -0.0224684431653819
0006b0 57 e1 ea 7d ba 9c d4 3f 79 ab df b4 ba bd d5 bf
       0.32206594750052403 -0.33970515883873237
0006c0 66 9b 5c 19 e7 80 d7 bf b4 07 4a 3a 81 2c de 3f
       -0.3672425983117392 0.47146635715773333
0006d0 05 52 7b 9b 93 b9 c6 3f 73 23 8e 0c 97 6b c3 bf
       0.17753834812050698 -0.151720887308581
0006e0 7f a5 ec 15 ec 2b d8 bf d6 2a 9e 2e f9 65 cd 3f
       -0.3776807989221069 0.22967448021184705
0006f0 8a 42 a4 67 82 68 c2 3f 97 b8 de 7e 88 58 cb 3f
       0.14381437359454124 0.21363931841682834
000700 05 72 fd 67 a4 2c d5 bf 2a 26 18 7c 18 f5 90 bf
       -0.3308497443702268 -0.016559965681187595
000710 99 f1 83 a3 6b a3 9a 3f 98 f4 9f 83 e0 36 c1 bf
       0.02601402459639388 -0.13448721339219527
000720 95 3e cd a2 ae d1 d5 bf 70 eb c0 5c 1e 1a cb bf
       -0.34092298410994576 -0.2117345765016938
000730 e9 89 40 eb ef 3e e5 bf ef 15 a9 b2 08 11 80 bf
       -0.6639327616470015 -0.007844989731107225
000740 ad 8b 1b fd ce 99 bd bf 81 b8 17 ca 96 c3 c1 bf
       -0.11562818221459166 -0.1387814032345354
000750 eb b5 ed 19 e8 7a de bf 86 e6 00 cb 47 db ae 3f
       -0.4762516263207021 0.0602667269999531
000760 9f f2 f1 af e4 83 d6 3f 06 36 42 8b c8 03 d4 bf
       0.35180012876643646 -0.3127309188792825
000770 52 e9 40 06 1a 07 c5 3f eb 86 7c 80 15 aa d8 bf
       0.1642792254004442 -0.38538110301497736
000780 63 a7 82 81 3e f8 b1 3f 3f f8 39 7f 46 93 df bf
       0.0701941553294581 -0.49336397575814667
000790 39 94 75 e0 16 88 b2 3f b9 e2 90 52 07 a5 bd 3f
       0.07238905887568671 0.11579938665171143
0007a0 a9 0b 6b ae 0e e0 e1 3f 64 7a 47 f3 c5 b5 a7 bf
       0.5586007505993297 -0.0463086947890943
0007b0 0f e9 be 3f f3 35 dc bf 96 d0 46 fc 6a 20 a1 3f
       -0.4407928583638218 0.033450454040037034
0007c0 34 ba be a6 40 35 c1 bf 34 f1 a5 9d 93 c2 99 3f
       -0.13443763868186098 0.025156313416560397
0007d0 b2 a5 8c 3e c9 dd db 3f 85 43 ed 9d d2 74 e7 bf
       0.43541174991932075 -0.7330105862148321
0007e0 a9 9a 54 da 5f 13 df 3f 91 31 da 62 bf 49 a2 bf
       0.485557521069874 -0.03571889955228181
0007f0 90 d8 c5 92 c6 ea d9 bf 46 a3 a9 39 10 1e e0 bf
       -0.40495457013401737 -0.5036698461745821

ba1 f8 [1, 64]
000000 f3 cc e0 f0 e1 66 76 3f ad 2b 52 9e 1e 74 a7 3f
       0.00546921022582868 0.045807797266284346
000010 c9 19 10 28 03 01 97 3f bc 9d 66 12 3c f2 86 bf
       0.022464799232716524 -0.011204213439511494
000020 3f b5 a1 39 d3 74 b6 3f 32 6c 58 4b 6b bc b2 bf
       0.08772010952971686 -0.07318754758345916
000030 73 b7 d8 67 f3 f3 b7 bf d0 40 4a 0b fa 6b aa bf
       -0.09356614384952681 -0.05160504710977565
000040 70 71 c5 f7 ca 1b 87 3f 8e 66 89 9e ff f1 b8 bf
       0.011283479391459322 -0.09744260426068704
000050 0b 08 91 a0 19 fc a5 3f 5d 12 6d 75 ea 77 a9 bf
       0.04293899617233884 -0.049743010362850205
000060 a5 36 07 1d 39 1f 6d bf d5 b5 0e 97 d1 39 a1 3f
       -0.0035549273963855926 0.033644246759063336
000070 2e 16 e9 2d 3f 05 9c 3f 20 17 a6 e3 4a 58 93 bf
       0.027363764931825844 -0.01889149679620694
000080 ae 4e 19 9b 77 02 a7 bf 00 56 ae 0e 9f c3 a0 bf
       -0.044940698321309966 -0.032742472211946705
000090 34 b3 e6 cb bd 38 91 bf 97 02 c1 7b cc 0d 98 3f
       -0.016818013734950912 0.023490138104764382
0000a0 d9 de 45 fd 24 18 78 3f 07 29 00 9b 15 48 b3 3f
       0.005882400979650725 0.07531867059893581
0000b0 6a 86 17 1a 3f fc 92 bf a8 05 fa 12 0d 9c a0 bf
       -0.018540369002840874 -0.03244057518623872
0000c0 1c 83 c2 d3 a8 4e ba 3f 26 3b 4c a5 ca ff ad bf
       0.10276274843137084 -0.05859215991778503
0000d0 f8 94 2b dd ad 38 92 3f f2 c7 f9 d9 6b c3 b3 bf
       0.017794338821563976 -0.07720064231560267
0000e0 b5 1d e3 96 7e 2b 98 bf 79 38 0e c8 12 33 b0 3f
       -0.023603418311521646 0.06327931770485574
0000f0 e6 2d 1f 5c b2 61 92 3f 94 7f c0 07 37 77 a3 bf
       0.017950808403652284 -0.03801891297939544
000100 03 88 cb 04 66 77 9e 3f 35 e7 62 05 ea db 84 3f
       0.02975234417215945 0.010185077943208757
000110 88 85 90 f0 de 71 b0 3f c4 92 57 4a 8f 1d 85 bf
       0.06423753140599875 -0.010310286957016308
000120 ca ff bd 45 23 ae 8c bf 73 93 2b 58 e1 d7 7c 3f
       -0.014004016462194974 0.007041816951390045
000130 05 0d 48 07 ca 8d ac 3f a7 03 cd 3c 54 c7 b4 bf
       0.055769265545700754 -0.08116651996989664
000140 49 41 bd 0c f5 c0 6e 3f c8 85 0b 2e 27 8f a1 3f
       0.003754118550127004 0.03429529606888654
000150 4e 8f da 49 99 5a b7 3f 8d 6c 89 d7 7e ac a3 3f
       0.09122617772169159 0.038425411043783254
000160 0b e8 28 1f 89 b3 82 3f 6e 00 d6 e9 c0 65 ac 3f
       0.009131499541684482 0.05546381811564137
000170 4c 5c 4a 5c a2 0b a5 3f 40 a2 0a dc 9d c4 98 3f
       0.04110438706009542 0.02418753295447318
000180 b7 c7 be 15 1a 24 ad 3f d4 ea fa 55 89 7e b6 3f
       0.0569160605949856 0.08786829327702189
000190 96 6b bb 79 ec e7 9e 3f 4d 73 03 d5 22 68 b3 bf
       0.030181593828142526 -0.07580774021648758
0001a0 b7 c2 cd 6c 1a 6d a9 bf 4b 7b 32 b1 26 8c 7c bf
       -0.04966051653071218 -0.0069695960438867595
0001b0 4f 5c b5 c3 5d c9 90 3f 96 4b f2 47 e1 ce b0 3f
       0.016393151350112153 0.06565673834329142
0001c0 71 c1 7a ad db af 9c bf f3 fd 4a c1 9b 0f a0 3f
       -0.028014595473622565 0.031369082780198364
0001d0 dd 2d 9d c3 8a db 9d 3f 9b 87 b1 1e 04 90 99 3f
       0.029157798947648906 0.024963440297490185
0001e0 18 31 5b 1a bf 68 91 bf ad a7 33 f6 e2 75 87 3f
       -0.017001138671546817 0.011455319536668751
0001f0 35 b9 ea c4 2c aa 95 bf c2 b3 dd f2 56 71 7d 3f
       -0.021156978148320255 0.007188167231885369

w2 f8 [64, 32]
000000 52 2a 09 10 36 3a cf bf e6 55 3a 17 7d e6 8a bf
       -0.24396396430013795 -0.013134934684141574
000010 34 85 99 4f aa 93 af bf 04 e9 01 98 ce 4a 79 3f
       -0.061673471657523043 0.006174857146215244
000020 d8 7c f4 42 82 77 9c 3f be 65 2a be 11 e6 b9 3f
       0.027799640022860256 0.10116682903971871
000030 eb 7c d2 94 90 69 c1 3f 78 9b c0 e8 2a a8 aa bf
       0.1360340811415662 -0.052064267074732606
000040 7b c2 fb 82 21 d5 53 3f 99 5a e5 1f 0f f8 ba 3f
       0.0012104823362585604 0.10534758118351774
000050 b6 4e 95 ed 01 cb d6 3f de d6 4d 46 83 b0 ac 3f
       0.3561405964039567 0.05603418572620254
000060 e5 ad 5d fa 5c fe cf bf 0c c0 db 7e b6 de 92 3f
       -0.2499500486841121 0.018427707188436712
000070 ea 46 11 3e cf 71 ca 3f 87 b1 e4 4c cc 86 cd 3f
       0.20659819155348852 0.2306762099700672
000080 5e 2c e6 d8 1e 60 b7 3f 1e 5e 68 69 92 b9 c5 3f
       0.0913104323901037 0.16972570559367822
000090 17 82 41 e1 5c 1d c0 3f 1d 67 5e 2c d6 f2 bd 3f
       0.12589608191321197 0.11698664267751409
0000a0 e9 37 81 47 c6 24 ac 3f c8 7b 6e 50 e0 98 c7 3f
       0.05496806738720734 0.1843529122097307
0000b0 55 8c 34 91 9d f3 bd bf 85 a8 47 83 54 6d b3 bf
       -0.11699852747965285 -0.07588699536396078
0000c0 08 aa 83 08 ef fe b7 3f f4 76 d1 e8 d8 96 c4 3f
       0.09373372991436935 0.16085349433972562
0000d0 fb 2e ba 16 39 ca bb 3f 40 68 2a 67 3b 7f d2 bf
       0.10855442814698428 -0.28901562762041877
0000e0 04 34 b2 2b ed 70 bd bf aa f5 e0 4c 65 92 c8 3f
       -0.1150043708496043 0.19196764234395164
0000f0 06 84 f1 bc b4 11 8e bf 48 a5 8a 90 02 94 ac bf
       -0.014682209030242543 -0.05581672682212485
000100 85 f8 75 e9 cb b4 a7 bf e0 7c 8a e7 83 33 a5 3f
       -0.04630124306548659 0.04140865518024284
000110 ff 73 19 3b 4b e1 bd bf 07 21 3c e2 3a 63 b4 3f
       -0.1167189616475781 0.07963912986099696
000120 d5 e6 4d 81 af 98 de 3f 6f fb fd 48 13 c3 d8 3f
       0.4780691874253596 0.38690645340096
000130 8f cc be 99 40 d9 b3 3f 2c aa ce 8f bb f5 c0 3f
       0.07753375772044734 0.13249916574325604
000140 b5 1b 58 8b c7 8c c0 3f ee ed ae ad de c2 cc bf
       0.12929624847330748 -0.22469695549612773
000150 bc c7 7f ce 77 7b b0 3f ce 75 71 2f 35 a1 cc bf
       0.06438397208674379 -0.22366967026293455
000160 51 60 04 bb 4b e7 b0 bf 36 8f c3 40 50 cc c9 bf
       -0.06602929416510618 -0.20154765283870696
000170 86 9c 7e 5f ae 8c 72 3f c6 07 12 38 be b9 be bf
       0.00452869524443778 -0.12002171391398439
000180 5b fd 82 09 88 63 d4 bf 63 f1 32 84 03 99 ca 3f
       -0.3185749142539486 0.2077946086409482
000190 f9 b3 06 76 2a 9a 88 bf f7 22 5e ab e5 a4 d3 3f
       -0.012012798048852235 0.3069395230782414
0001a0 ce d3 7b a9 6f a6 aa bf e1 b1 a1 93 bd e4 90 bf
       -0.05205105728047209 -0.01649757588931944
0001b0 72 a6 52 e8 b7 a9 85 bf b5 8f 1b 38 dc 13 d0 bf
       -0.010577618386679453 -0.25121217231048415
0001c0 57 7c 27 f3 a1 c8 c6 bf e4 c6 ed a4 7f 4f c9 bf
       -0.17799782154813457 -0.19773860505261276
0001d0 32 f7 8b a8 69 df bb 3f 1d df 7c 62 35 2b a3 bf
       0.10887775769148503 -0.03743902995341684
0001e0 b4 ce 1a e3 25 3c d4 3f 47 11 99 eb 2c c0 bf 3f
       0.3161711423701761 0.12402611495878545
0001f0 bc cd e0 52 6a 22 be 3f 59 2c 45 23 4b 78 71 3f
       0.1177126362170417 0.004265111452990211
000200 2d 1c c7 dd 39 dc cb bf b4 0f a4 bf ad 0f b4 3f
       -0.21765826539032798 0.0783642380593495
000210 34 b2 9f 38 33 92 e2 3f 86 cf 5e 39 f0 c7 b9 3f
       0.5803466897901388 0.10070706749576006
000220 25 ba c4 da 0e 68 bc 3f 16 d1 bf 1b 4c d3 96 3f
       0.11096279946352945 0.02229041022651853
000230 96 55 b8 cf 37 d5 c4 bf 85 75 53 b7 08 1e c9 bf
       -0.16275689737873894 -0.19622906638589313
000240 1a 3e 69 cb d3 3a c5 3f c6 f8 a7 d9 48 5e d5 3f
       0.16585776741202168 0.33387967353327175
000250 32 44 00 87 97 d0 b8 3f bc c6 18 52 1c b3 b3 3f
       0.09693285985874026 0.07695176128688791
000260 0f 15 e3 db 83 e9 cc 3f 7e 3a 77 3d a8 66 c1 bf
       0.2258763145129383 -0.1359453487516084
000270 d3 b9 f5 cd 64 d9 ca bf 5a cd 2f 5c b8 76 c2 3f
       -0.20975933128961674 0.1442480516558174
000280 b2 f6 58 c1 5f d1 c8 3f dd 8f 57 8a 9b 02 b3 bf
       0.19388958874508472 -0.07425853850833115
000290 fd fb a6 0d b1 43 d4 3f be f9 aa 3c 58 af b1 3f
       0.3166315682719299 0.06908179742001772
0002a0 03 5a bc fa 29 96 92 3f 69 fc be 78 cc a1 af bf
       0.018150955132194124 -0.061781301249987326
0002b0 ef 6b 20 3b da f7 d1 bf 41 d4 33 e2 32 b4 c3 3f
       -0.2807527139099752 0.15393672986070508
0002c0 f6 9f c7 7b 51 39 c0 3f 3b a3 a8 4f 47 76 d4 bf
       0.12674921554503243 -0.3197191503445997
0002d0 87 f7 0a 14 26 f7 d2 bf fa 3f cd 7c 29 7c c2 bf
       -0.2963347621661047 -0.14441412538371862
0002e0 80 9b 33 a9 1c 88 b4 3f 37 51 8a 01 96 24 d8 3f
       0.08020190363786917 0.377233029846383
0002f0 e4 37 ab 9f ae 7e cc 3f 14 07 1d 2a 4c a9 c4 3f
       0.22261603161172083 0.1614165502197059
000300 ce dc 9c 52 5c a7 d8 bf b5 38 72 2b 05 0b cf 3f
       -0.385214882542141 0.24252380963702583
000310 9d 08 86 77 14 e0 cf 3f 03 a7 28 1f df ad c1 3f
       0.24902587734329 0.138118639196641
000320 01 80 5d 36 c1 58 a9 3f ef 02 e5 70 43 5d b7 3f
       0.04950526989591709 0.09126683717932925
000330 80 08 9d d7 10 5a a2 3f 6d 3e 61 c1 48 c2 af bf
       0.03584339744567533 -0.06202914581865291
000340 d4 f3 28 2b 5d 9d b8 3f 4a cc 14 40 5a a9 ca 3f
       0.09615118316374033 0.2082932293793383
000350 55 dd 84 fa 49 f6 8d 3f 86 24 ad 53 67 bf 94 3f
       0.014629915197118018 0.020261396867941282
000360 9e 8a 06 39 30 e1 b6 3f e5 26 5a b2 bf b8 d1 3f
       0.08937360183930784 0.2769011728019975
000370 1d bd 45 f1 67 63 c3 bf 42 85 59 ff 1c 3f d3 3f
       -0.15147113114242297 0.3007271283768952
000380 4e 14 1f 96 02 af c0 bf aa 67 36 9f a5 9c b4 bf
       -0.13034088449618014 -0.08051524292969128
000390 95 02 18 55 ba b3 c4 3f db b8 d7 e5 b6 8f c9 bf
       0.16173485903711496 -0.19969831679140423
0003a0 e7 65 57 dd 3a 25 d0 3f bd 4f 8e c2 c7 e4 c5 3f
       0.25227233519907916 0.1710443210582734
0003b0 92 d6 59 11 07 34 c7 3f 12 fe c3 25 6e b4 98 bf
       0.1812752566071834 -0.024125786833790804
0003c0 56 af 07 c5 8c e6 c2 3f 39 fd af ed 3a 2c dd bf
       0.14766082401853947 -0.4558245965162829
0003d0 a9 79 8f db 28 5f ce bf 7c dc 76 8f 4b ef d2 bf
       -0.23727904053425888 -0.29585541734872556
0003e0 9e d1 fc 3c 42 80 b1 bf 34 8d 69 5e ff 8b 98 bf
       -0.06836332310633117 -0.02397154821154608
0003f0 18 60 f1 9a a5 7d cb 3f 3c 59 a2 b6 02 79 83 bf
       0.21477193894929836 -0.009508153151085545
000400 0e e5 68 42 37 db c2 bf 84 dc 50 3c 3e 05 bc bf
       -0.14731493704474768 -0.1094550034766702
000410 c5 93 41 4c bd 79 a0 bf 3d 55 b9 81 2d c4 87 3f
       -0.03217879825459805 0.011604648133622159
000420 db 20 3a f6 0c 4b c1 bf 2c f5 f1 24 af 46 b2 3f
       -0.13510286352926112 0.07139105464917311
000430 ca 71 61 42 de 33 d0 bf 61 a6 3b 8a 89 e3 d5 bf
       -0.25316578371510146 -0.34201277255360735
000440 1f 8b 66 e3 61 10 b2 3f 7b 6d cf e0 2a ec 78 bf
       0.07056247522136204 -0.006084601872284319
000450 72 85 6e 37 53 1d 9e 3f 2f 15 3e 10 09 81 a6 bf
       0.029408741243633192 -0.043953212006309854
000460 6c 49 f6 bc 1a 79 c6 3f 34 04 cf e0 83 c8 d5 bf
       0.17557081438696842 -0.34036347345324036
000470 ab a3 07 63 aa 38 bd 3f e8 87 3d f4 d3 4a b0 bf
       0.11414589803429347 -0.06364178383731167
000480 55 a7 59 bf 2d c5 b0 bf f6 e2 f4 99 75 f2 d3 3f
       -0.06550870820651984 0.31167354616950094
000490 7f ff 0a a6 d3 68 df 3f 9e 55 07 07 ed 2e bf bf
       0.4907731172097484 -0.12180978223417191
0004a0 f6 a3 49 fd 5d 79 b5 3f 6d 84 62 c0 37 ea ba 3f
       0.08388316568165508 0.10513637968917218
0004b0 7f 8f d6 24 89 34 85 bf 87 f8 db 1d b8 70 b9 3f
       -0.010354110180578633 0.09937620858178962
0004c0 5e a8 79 0e 60 13 d6 3f aa 7a 66 b4 32 a6 bc bf
       0.34493256963344787 -0.11191098121933388
0004d0 59 1c 50 db 5a 68 d2 3f 31 b6 14 1e 5a 22 b7 3f
       0.28761931817320413 0.09036792024991126
0004e0 a4 28 0c 12 13 2f d3 bf 71 a7 ea d6 a7 1b b5 3f
       -0.29974819910479256 0.08245324131953936
0004f0 c9 86 dd ae bf 60 c1 3f f2 e3 54 37 07 36 d1 bf
       0.13576503790232256 -0.26892261889912483
000500 77 27 65 f4 26 b4 a0 bf 68 f0 9d 7e 4e 2d b1 bf
       -0.032624451955213844 -0.06709757415041084
000510 a7 a8 cc 66 2b 64 d0 3f 14 c2 4a 53 8c 25 97 3f
       0.25611386336334835 0.022604172309629147
000520 8a 92 19 67 09 93 ae bf 39 f1 d0 19 8c 63 a9 3f
       -0.05971555121940238 0.04958761038912702
000530 c5 4f 07 17 5f 78 86 bf 6c 22 6b e5 2a a6 d1 bf
       -0.010971777811313541 -0.27576706318044475
000540 de ae 58 79 8b ac b7 bf c0 cd 33 db 51 ab cc bf
       -0.09247657501753845 -0.22397826388588093
000550 a7 e4 2b cc 79 2a d7 3f d2 44 e9 42 eb b6 c2 3f
       0.36196751536005894 0.14620724455975292
000560 07 0b 36 5b d2 9b c0 3f a2 1b 93 ad e0 d0 d0 bf
       0.1297553010336616 -0.26274887991569973
000570 72 fb 7b ef 07 06 db bf b1 86 a9 fe e3 07 d1 bf
       -0.4222431029046937 -0.2661066042838725
000580 da 37 29 5e 18 4f cd 3f ea 6a f7 bf 55 63 c4 3f
       0.22897629354196064 0.15928146241534274
000590 2e 15 3a 80 9e 8f c4 bf 6b 16 fc 26 b3 4e c7 bf
       -0.16063290844992067 -0.18208922771025313
0005a0 aa 28 03 83 16 8e 9c 3f 09 0d 21 1f f7 88 a5 bf
       0.027885772463186832 -0.042060587453784555
0005b0 3c 4b ca ba 52 75 b8 bf e3 8c ba 4f 24 24 d1 3f
       -0.09554020939166902 0.26783092294699723
0005c0 05 b8 72 1d b6 73 c6 3f fc 4c 39 4c 18 60 bf bf
       0.1754062312879229 -0.12256004200871823
0005d0 c4 1f 17 74 c3 18 91 3f 4e b5 15 44 b1 5a b1 bf
       0.016696027718154274 -0.06779010688997752
0005e0 99 03 5e 1f 4a 7b ad bf 5b ff 66 57 1c 39 d6 bf
       -0.05758124955082806 -0.3472357610262315
0005f0 7e 5b 8a 10 0a 35 ae bf 52 b7 dc e0 2c b6 b5 bf
       -0.05899840785894293 -0.08481102456854941
000600 70 c4 f3 9e ea 19 c9 bf ec 5f cd 11 4b c8 c2 bf
       -0.19610340844477347 -0.1467374646115326
000610 43 4f 45 4c 99 64 73 bf d1 6c 7a 37 60 e2 cd 3f
       -0.004734610385941643 0.23347094258210757
000620 e9 b2 c3 fc 80 2c 56 3f bf 6f e8 8a 45 10 c4 3f
       0.001353383983821727 0.1567465713750362
000630 85 97 bc d8 7f e1 a9 3f 18 c5 8a b7 9c 91 d1 bf
       0.05054854889594566 -0.27451246189146294
000640 b4 96 fe 5a df a0 b5 bf 18 9f 85 eb 89 9a 96 3f
       -0.0844859692720899 0.022073893547172124
000650 53 74 53 67 b0 11 c3 bf fa c8 6f 56 49 51 c7 3f
       -0.14897732777800118 0.18216816635646876
000660 bc eb 41 78 1c c7 c4 3f 21 36 32 74 fb 5a b0 bf
       0.1623263919062462 -0.06388827883548533
000670 90 7e 74 28 5d 29 d7 bf 56 33 ef ba 8b 5a b2 bf
       -0.36189965201081353 -0.07169411958530011
000680 aa b6 41 86 28 58 82 bf 56 84 b7 16 40 94 c2 bf
       -0.008957211110295422 -0.14514924153539494
000690 67 64 67 5d 59 c7 dd bf 0f 9f 54 44 ca 44 d4 bf
       -0.4652923023364281 -0.31669861481576417
0006a0 ac fe 71 67 9f 35 c6 3f e8 76 00 85 89 20 be bf
       0.17351143408813152 -0.11768397805323227
0006b0 5f b7 91 3c 30 86 c6 3f cb d1 0f 3e 6e cc ab 3f
       0.17597010571938207 0.05429405696478148
0006c0 93 85 a2 da ac 1c 96 bf 91 55 68 77 72 69 be 3f
       -0.021593762249386094 0.11879649558280493
0006d0 03 70 e4 b5 6a 3f cd bf 46 9e ca 15 16 a2 b5 3f
       -0.22849782830678586 0.0845044902040338
0006e0 87 b9 ea b9 6c 00 68 bf fc 24 9d 7c e6 c2 d2 bf
       -0.0029298900183995532 -0.29314577264138086
0006f0 b5 79 8c 5c af 70 ca 3f 9e 8c 5e bd 14 ae b8 bf
       0.20656387347203312 -0.09640626548075423
000700 40 ab 9b 12 29 53 a0 bf 9f cd 65 7a ee 6b b2 bf
       -0.03188446380757748 -0.07195940483307205
000710 aa 16 5a e8 2e 21 c9 3f f7 19 19 99 5d 6c d9 3f
       0.19632517190273308 0.3972391123865288
000720 b9 11 18 c1 38 71 b8 3f 08 c4 ca 78 a2 f2 c4 bf
       0.09547762598237498 -0.16365462205934045
000730 7d e3 76 a8 e8 3d be 3f 8c c3 57 e6 0b 1a ce bf
       0.1181321536340771 -0.23516987559517266
000740 12 0a bd 70 27 aa a2 bf d0 db 13 84 56 b0 da bf
       -0.0364544224853668 -0.4170128145046279
000750 1c be 86 a4 c0 96 a6 bf ba c3 03 25 7f f4 b0 bf
       -0.044118900378972564 -0.06623072293929413
000760 c7 c9 5a 81 4a cf c3 3f f6 26 32 58 c8 ac a4 bf
       0.15476352039475058 -0.040380726591207436
000770 75 50 63 e9 91 cf b2 3f 8c 6f 47 ba da 68 9e 3f
       0.07347976634929572 0.029696862811632793
000780 8b 5d c4 ed a7 cc bf bf 22 05 12 83 79 79 c4 bf
       -0.12421655230388333 -0.15995711231156756
000790 58 cf eb cd 06 72 cf 3f 1d 32 d1 e0 da 45 7b bf
       0.24566731505148698 -0.006658415787637509
0007a0 81 e1 6a 61 b4 aa b6 3f 79 aa a9 f7 78 31 ca 3f
       0.0885422456584646 0.20463478176982955
0007b0 d9 68 f6 96 37 34 b1 3f f2 21 33 13 33 44 d0 3f
       0.06720302043541738 0.2541625678536824
0007c0 51 87 34 2b 92 77 b8 bf b3 62 b1 55 22 a2 a7 3f
       -0.09557450823606685 0.04615886016899164
0007d0 08 a5 f7 48 0d 12 d8 bf 3d 1b 93 c8 86 a2 d2 bf
       -0.3761018002101797 -0.2911698302017845
0007e0 4f 1e 82 08 d1 00 b4 bf 17 63 14 6c a4 3e c5 3f
       -0.0781374593517452 0.16597419049573922
0007f0 b8 04 bb 5b 6e 9f b0 3f 55 f8 a1 c0 32 4f b1 3f
       0.06493272532954364 0.06761471941897075

ba2 f8 [1, 32]
000000 e0 ea 57 c4 0d 20 68 bf 28 ce 66 a9 66 3c a5 bf
       -0.0029449719320358975 -0.04147644822969837
000010 be 68 08 bc 4a 63 99 3f 5a 10 4a 16 05 dc 8d bf
       0.02479283116017749 -0.014579810850826092
000020 46 79 a5 90 2b 8b 8b bf 86 ab 60 ba 6c 22 92 3f
       -0.013449039794690375 0.01770944488104533
000030 54 a5 40 d8 f7 23 a6 3f bc ca 61 e9 fd fb 61 bf
       0.04324316515733054 -0.0021953543865092778
000040 98 09 e0 ee f3 3c ac bf c6 92 6b 54 ca 9a 98 3f
       -0.05515253344494225 0.024027978327370268
000050 78 8a ab 49 12 97 77 bf 4a 3d 86 e6 e2 98 93 3f
       -0.005759307324043499 0.019137902565089328
000060 88 b1 1a 8c 9a 61 7c 3f 07 83 59 63 fb 20 88 3f
       0.00692901964218285 0.01178165814343536
000070 72 5b 75 21 cd 9f b1 3f 43 62 81 72 34 6d 8f bf
       0.06884462420326345 -0.015345010513713514
000080 fe 02 b3 67 80 b4 8c bf 2e 35 02 96 bb d0 96 3f
       -0.014016154446268466 0.022280627280044367
000090 92 06 ec 4c 09 a0 a5 3f f8 f3 fb 81 0f 71 90 bf
       0.042236605300797994 -0.01605629187450927
0000a0 9c 64 d9 1f 40 38 6a 3f ac 01 6f db ed dc 52 3f
       0.0032006504468822927 0.001151306421647384
0000b0 7f cc 44 e5 79 70 b2 bf 6b 0b 1e 2b 02 57 97 bf
       -0.07202874991780737 -0.022792848474192533
0000c0 10 1f b9 c0 36 36 ab 3f 5d 6b 96 cc cb 4c 66 3f
       0.053147994066021664 0.002722166104559261
0000d0 46 5a 5c 38 3a 9e 8d 3f 1e 0b e1 e4 9a f1 91 bf
       0.01446195110797278 -0.017523212642355117
0000e0 72 6b 5e 2e d2 21 7c bf 0b b4 3a 9f dc d7 a4 3f
       -0.006868191738159323 0.04070939487187538
0000f0 d6 84 c0 b9 08 43 25 3f b6 b2 57 34 ad 30 8c 3f
       0.00016221505654904236 0.01376471820818757

w3 f8 [32, 16]
000000 9e ab 03 66 ae 7a bf 3f 77 49 22 59 05 08 c8 3f
       0.12296571722587976 0.18774477817766996
000010 4e 99 6a 30 e0 66 e2 3f d0 69 21 d7 1c 9c bb bf
       0.5750580735810134 -0.10785084011278134
000020 38 58 e4 d5 f7 27 d3 bf 86 c1 76 1c 0a 07 a1 3f
       -0.2993144596852093 0.03325683209857559
000030 1b 86 9e bb 76 43 83 3f a2 5a 15 a7 2e 58 9b 3f
       0.009406020737347245 0.026703576038324635
000040 1b 9c e2 1b 67 07 d1 3f 95 3f a4 9e 46 75 95 3f
       0.2660768291775086 0.020955184395517874
000050 18 f4 03 e0 1a 47 aa bf f0 8b 66 20 6c f7 a1 3f
       -0.05132373795093076 0.03509080787195973
000060 6e d9 57 e0 58 81 b2 3f 90 e3 b1 e1 6f 0a c5 bf
       0.07228618123176542 -0.16438101310975783
000070 b0 83 e8 82 ca d6 8e 3f ad 89 91 9a 7a 27 c5 3f
       0.01505811893463424 0.16526730105677015
000080 d3 e3 18 42 3f 52 d6 bf d3 6f 1e 56 c9 e9 88 3f
       -0.3487699647408224 0.012164662304534979
000090 62 84 12 cc e3 e2 d3 3f bd 8e bd c5 d2 8d dc 3f
       0.31072325638712617 0.44615620909301495
0000a0 05 c3 43 20 96 a8 d0 bf 88 fe 0f 00 18 61 70 3f
       -0.2602896990857036 0.003998845816567738
0000b0 e0 0e 2e e3 69 b0 bb 3f 3f 24 92 49 db ba c4 bf
       0.10816060825714713 -0.1619524106247656
0000c0 4e 5d 8e 6d ee 7f df 3f 0a 02 e0 d7 f9 31 b4 3f
       0.49218331049765573 0.07888757248293402
0000d0 bc b8 87 45 36 29 c2 3f f2 bc 7a 37 27 03 c3 bf
       0.14188269038226575 -0.14853372773129753
0000e0 63 0d fb ea ce 8e c6 bf 88 b9 59 db 53 47 c8 bf
       -0.17623316262880015 -0.18967674456093797
0000f0 8c c1 d2 6b b0 73 b5 3f 3b 18 cb a5 ad 7c cf 3f
       0.08379652626422834 0.2459923800981317
000100 ca e5 70 fa 55 d5 d3 3f ef 2c 7e 4d ca d2 c9 bf
       0.3098959871018364 -0.20174530776817032
000110 9a 98 12 83 ff f8 d9 3f 9e a1 82 31 20 f4 b6 3f
       0.4058226375585804 0.08966256340739284
000120 81 a0 08 9c e9 49 a9 bf 83 b1 58 eb 72 84 d0 bf
       -0.04939203290661088 -0.25808403952648734
000130 96 07 a9 23 2c bf bb 3f 31 e1 20 4a 67 48 d3 bf
       0.1083858096181117 -0.30129415740113347
000140 a0 92 6e 69 4b b4 d3 3f bc fe e7 1d 63 ce d2 bf
       0.3078793077095643 -0.2938468734791788
000150 5b a2 26 17 57 fb be 3f 33 e7 ad 45 3e 98 b8 bf
       0.12102264704902536 -0.09607304764895445
000160 f2 c9 93 63 41 8b c3 bf 1a 35 e6 47 f4 c0 ad 3f
       -0.1526872383324896 0.058112748886836665
000170 37 9b ca 16 12 34 ce 3f cc 6a 71 aa ad aa e2 3f
       0.23596407044279896 0.5833347634282631
000180 c1 12 12 3e 66 e8 d2 3f 89 7a d3 52 f4 05 b4 bf
       0.2954345327528181 -0.07821585676308919
000190 58 f0 73 66 ac f5 cb bf a2 62 17 18 4a 77 b5 bf
       -0.21843485834677057 -0.08385146225135512
0001a0 20 04 3b 81 cb 2e c2 3f 35 81 b5 1d ce 26 b9 bf
       0.14205306825718456 -0.09824836945836497
0001b0 f4 d4 ed 3f 69 92 b8 3f fd 4f 14 86 44 bf c7 3f
       0.09598405657546377 0.1855245260891251
0001c0 18 c6 8e 9d ff a7 c1 3f b1 7c cf 9c 23 49 a3 bf
       0.1379394072842366 -0.03766738213720922
0001d0 26 5f ff 6c ba cb b4 3f a6 b7 59 96 8c 36 db 3f
       0.08123364602158442 0.4252044170633503
0001e0 14 7f 31 de 91 b8 e5 3f 5b cf 84 c4 80 0c c8 3f
       0.6787804927552963 0.18788156123775476
0001f0 12 73 b9 f6 4f 63 b8 bf 76 c8 9f d2 c0 16 5f 3f
       -0.09526538632912843 0.0018975146326707638
000200 87 bd a6 fe 7f 7d d5 3f 2b 5d a5 c3 1e 02 a5 3f
       0.3357849108533277 0.0410318006349207
000210 07 ed e6 74 33 2d b8 bf 91 2f dd 54 80 dc c4 3f
       -0.09443971256307658 0.16297916549444527
000220 22 43 0f e9 92 a8 db bf 15 25 11 46 0b 45 d4 3f
       -0.4321639324162324 0.31671411364057295
000230 e9 58 9b 9b 4e da d2 bf 25 33 e2 b1 08 22 d7 3f
       -0.2945744056318192 0.36145226832813854
000240 0a 25 8f ef fc df d7 3f 5a 11 47 3f 02 e1 d7 bf
       0.37304614443253625 -0.3731084459252735
000250 f7 bf 3b 6c e0 74 a7 3f bc 78 ea 5b 37 cf 9c bf
       0.04581357308586569 -0.028134217248059853
000260 f8 75 62 b6 b2 50 c6 3f 7f b5 b3 72 8d 3d d5 bf
       0.1743377104329935 -0.33188186837545425
000270 6e 00 bc 39 4c 43 d4 3f 7c e9 25 ad b4 72 ce bf
       0.3166075290500946 -0.23787554220673346
000280 2b 28 b1 f5 02 c3 db 3f b1 40 4d 06 41 64 de bf
       0.43377756112443205 -0.47486901870162074
000290 65 62 4b 93 a9 15 ad 3f bb 44 c9 79 73 ab cb 3f
       0.056805896024972914 0.21616977163879433
0002a0 ef 63 a6 f6 91 61 b8 3f 4b 91 01 11 4c 44 bd 3f
       0.09523880264022443 0.11432338156879955
0002b0 e0 2d 68 43 d7 d5 b6 bf e3 4d 86 24 28 62 97 3f
       -0.08920045276334276 0.022835376004492047
0002c0 d6 19 d5 75 db 05 c4 bf 05 ea 29 4d 80 07 ce 3f
       -0.15642874959503555 0.234603917768098
0002d0 cd 22 6c 23 3b 81 d1 3f ae 0c 5b b1 0a 73 de 3f
       0.27351263484210336 0.475771592329873
0002e0 d2 fa 2d 2b 81 18 e2 bf 0d 3c 87 d1 4f ae c3 bf
       -0.5654912799216965 -0.15375707369682381
0002f0 56 d9 ed 88 28 33 d0 bf 28 8f dc 19 9d 0b b5 bf
       -0.2531224572370737 -0.08220846063028076
000300 b9 f0 7c 3c f0 b2 e7 3f 99 a9 91 f8 55 83 e2 bf
       0.7405930692107382 -0.5785322050917784
000310 73 d8 ea f9 f1 c5 db 3f c5 a9 14 34 e5 e7 ca 3f
       0.4339566174124975 0.21020188372615514
000320 32 c0 3b 0a ff da bd 3f 93 3e ba ec cf 3c c1 bf
       0.11662286758269216 -0.13466834124527746
000330 4e eb 78 15 eb 18 97 bf 1f 22 a6 55 f4 e6 c5 bf
       -0.022555993257110267 -0.1711106699188045
000340 e8 6d 32 80 85 37 d3 3f 4d e1 b5 b5 83 73 d4 3f
       0.30026376265752086 0.3195504450336742
000350 68 05 71 12 48 f2 d5 3f bc 48 f9 85 97 3f c3 bf
       0.3429126911251701 -0.15037817041099355
000360 b9 50 6e 01 30 38 bd 3f 90 54 34 f4 9e 57 da 3f
       0.11413860354361106 0.41159795616233286
000370 cf 4e e8 4f ca e4 cc 3f 96 9f 8e f5 73 2d da bf
       0.22573212529879647 -0.4090242288607383
000380 63 ff b9 fb 17 a8 d1 bf 1d 67 44 4b 67 a7 ba 3f
       -0.2758846243159409 0.10411687457635961
000390 bb 99 10 28 a0 29 dd bf bb 71 3e 09 48 ae ce bf
       -0.45566562569220154 -0.2396936459671347
0003a0 0b d3 21 1a a6 a3 a1 bf 09 9c 15 cf 40 30 be bf
       -0.034451666536290025 -0.1179237847878626
0003b0 dc 28 ca 15 da a9 ce 3f 02 fd bf 98 1e c9 b3 3f
       0.2395584684748603 0.07728759030577595
0003c0 20 59 9a ad 37 be 8e bf 82 b9 b2 00 22 3e d6 bf
       -0.015011248574677227 -0.3475422865693859
0003d0 46 82 1b 39 4c c5 c2 3f 64 99 f7 23 56 d4 cb bf
       0.1466460493893626 -0.2174174953099267
0003e0 41 d9 e4 ad 79 eb b6 bf 76 85 5b 0b fe 39 c3 3f
       -0.08953056807954331 0.1502072864014214
0003f0 10 36 5d 35 a1 f2 c6 bf 9d 89 a0 00 55 47 90 3f
       -0.17927947145146605 0.015897110141062865
000400 d5 30 a3 4f ee eb c8 bf 35 bb 70 43 d4 6c cc bf
       -0.19470003975437203 -0.22207120221124801
000410 2f ef 33 e1 2d ab b1 bf 10 89 2c f7 71 62 ca 3f
       -0.0690182375728312 0.20612930840531662
000420 4e 84 6a 29 f5 78 c0 bf cb 68 ce 37 90 0e e1 bf
       -0.12869133493680568 -0.5330277528730901
000430 c0 ea 35 6d 26 94 d7 bf f1 a0 d2 0a b1 08 cd bf
       -0.36841736474131537 -0.2268277457089947
000440 31 e2 5c 16 7c 54 d3 bf c7 88 25 6d 1a df d3 3f
       -0.30203153785581366 0.3104921403775162
000450 23 cf 2d f8 e7 ba d1 3f b4 c0 6b f9 72 52 a5 3f
       0.2770328448889236 0.04164466185273011
000460 33 72 80 9d d1 70 94 bf 87 41 fb 3b 8a 12 cd bf
       -0.019961619604247537 -0.2271282952192559
000470 2a 8a 6d af c7 0c c8 bf fb be e7 78 63 78 b1 bf
       -0.18789001527609744 -0.06824323369778178
000480 7b b1 d0 7c f3 bf da 3f 4b 79 af 6c 85 06 b7 bf
       0.4179657668016927 -0.08994325545743213
000490 f8 e3 56 5e c7 99 b8 3f 8a 6b 23 4f ed 8f cb bf
       0.09609647801597976 -0.21532980312516897
0004a0 7e bc 36 c2 3d 4a c8 3f 95 b5 7b 32 c9 e4 d6 3f
       0.18976566298576708 0.35771398477558
0004b0 f7 cf 98 04 4c 5f c2 3f 61 ed 23 2b bd 98 e0 3f
       0.14353323196849008 0.518644890078047
0004c0 f0 23 84 64 4c bb ca bf 14 77 a8 89 c4 b6 6c 3f
       -0.20884089382187154 0.0035051191928364787
0004d0 2a 62 4d 4b ee 5e 49 3f bb c6 24 d9 96 8e e2 3f
       0.0007742560907032005 0.5799059144103106
0004e0 e9 ce a5 15 61 8c b0 bf 39 88 4d eb 44 09 cf 3f
       -0.06464201715953845 0.24247037400624707
0004f0 e8 9c 1e d4 44 31 cf bf eb 05 45 35 8f a7 b7 bf
       -0.24369106633569193 -0.09240050364044065
000500 9e 9c a1 4e 6a 70 bd 3f 1c d7 41 18 61 72 ad bf
       0.11499657077512146 -0.05751326962574252
000510 14 2e b7 f8 b9 c5 c0 3f c9 23 38 72 8f 51 a7 3f
       0.1310341324263936 0.0455441309860088
000520 49 93 79 b0 8a 1d c3 bf d6 bc 75 8d c2 c7 cf 3f
       -0.14933904282511382 0.24828369052145288
000530 48 83 00 e9 43 bd dc bf 2e b8 47 b8 7d 53 c5 3f
       -0.4490518355760753 0.16661044595770264
000540 8c 96 31 f9 33 ed c2 bf 69 ea 12 07 d4 fd bf 3f
       -0.1478638617292528 0.12496686146452309
000550 ef 57 26 d0 f5 c0 de bf ca 16 d7 ab 9d 47 c7 3f
       -0.4805273564064682 0.18187304392465925
000560 4d c0 fc cf fc 5d db bf 88 27 41 af f9 51 bd bf
       -0.42761154471645996 -0.11453209427523181
000570 a8 67 e1 65 7d 77 b0 bf 14 06 5f ee bf 5d c0 bf
       -0.064323270199934 -0.12786101474016276
000580 4a 92 16 22 20 0f d2 3f 86 fc 5f 28 b4 48 c0 3f
       0.2821731884853632 0.1272187420981689
000590 58 b2 a1 76 52 c0 d7 bf d0 61 87 f6 1a a7 db bf
       -0.37111341080779914 -0.43207429957467713
0005a0 6e d6 a2 3d 76 a4 94 3f 4d 3f 31 fa 96 b1 c8 3f
       0.020158622276275677 0.1929196092264597
0005b0 5f 0d de f5 64 91 ce bf 30 fd 10 6c 1b ac da 3f
       -0.23881208424800612 0.4167545848212795
0005c0 a1 a8 04 97 0a 19 e1 3f 61 85 7a 3c c0 75 cf 3f
       0.5343068074773961 0.2457809729867604
0005d0 0a 04 b6 6e 72 29 a4 3f 7b 77 35 0e 53 a3 d1 3f
       0.03937871552899004 0.27559353244384227
0005e0 78 ce b2 01 7f c8 cd 3f 04 c3 c4 f3 04 39 ad bf
       0.2326811559956814 -0.0570756480759709
0005f0 9d f3 80 a8 11 b6 c5 3f eb 17 18 ae cb 82 d9 3f
       0.16961880424233025 0.398608131421837
000600 27 4a 16 c7 d3 2c cf 3f 54 54 90 33 83 e1 bb 3f
       0.24355551930473604 0.10890979775315773
000610 e7 42 4e 3a 9b f8 cb bf e5 86 2b 32 e9 38 db bf
       -0.21852436396559158 -0.42534856700340945
000620 7c 61 5a 1c 63 86 d3 3f e6 ea 11 75 d1 8f d1 bf
       0.3050773407826666 -0.2744029658567072
000630 0e 05 20 93 41 31 b9 bf 08 1c d0 e3 91 c3 b2 3f
       -0.0984078392211993 0.07329665958251053
000640 80 40 5e 16 a3 e4 d6 bf 6a 6a b7 da 9c 18 db bf
       -0.3577048986853768 -0.42337724074392347
000650 09 c8 c6 8b 6c b9 a2 bf d4 f4 46 30 0c 91 db 3f
       -0.036570922911224164 0.43072800364082053
000660 4c 63 ed fc df c9 c6 3f 23 2e b9 64 02 48 93 bf
       0.17803573465314526 -0.018829381368318587
000670 9e 64 f2 2a 4f 9b cf 3f 42 e1 a1 7b 19 d6 c4 3f
       0.24692716214193394 0.16278379952178496
000680 7c 31 5c af c1 f7 c6 3f 3e e1 93 fd 08 4e b0 bf
       0.1794359308481822 -0.06369072142468199
000690 8d 4a 65 49 f0 c2 c9 3f 76 5f 19 1c cb dc dc 3f
       0.2012615545632638 0.45097615951589576
0006a0 48 08 2c eb d9 93 c2 3f 7c e4 50 59 17 f3 d8 3f
       0.1451370619107044 0.38983710977806374
0006b0 8e 0f 8f d8 2f 1a d9 3f 18 99 77 c1 3c b4 92 bf
       0.3922233214218459 -0.01826567583875613
0006c0 4b 9f f0 18 e4 07 a5 bf 56 ab ae 7e 2b 72 d5 bf
       -0.041075828594613194 -0.3350933777934889
0006d0 2f 7f 3e e4 45 fe 7d 3f b4 8f aa 21 8f 52 cc 3f
       0.007322571767786986 0.2212695040117275
0006e0 0d 9a c2 e3 e0 fa 48 3f 03 22 79 a7 86 e7 ba 3f
       0.0007623289198093755 0.10509530628872459
0006f0 21 f3 09 ce b7 82 bc 3f 74 e4 aa 73 0d a6 e0 3f
       0.11136959820028071 0.5202700862056546
000700 3a ce 2e 3a a9 36 d8 bf b5 6e aa 74 ae d0 bb bf
       -0.3783362453643552 -0.10865297649655299
000710 db a4 c3 99 be 9b d7 3f 61 c4 36 60 26 91 de 3f
       0.3688808919528818 0.4776092471684646
000720 45 5b 81 8b c0 f5 c2 3f bb 96 a3 00 56 83 d5 bf
       0.14812475978643583 -0.3361411100616853
000730 5b 47 09 e6 f0 82 c3 3f 1c c4 d3 da 06 0c bc 3f
       0.15243350250471618 0.10955851404629907
000740 89 f2 a3 77 b4 e3 db bf 60 50 3c d3 cb 33 b4 bf
       -0.43577300723681184 -0.07891534716719795
000750 00 57 ca 4a 35 61 e6 3f ae aa d4 6f 1a 28 b9 bf
       0.6993662319898419 -0.09826817732088486
000760 ca 48 05 ed 54 3a df bf 02 39 7c fe df 79 e2 3f
       -0.487935286965819 0.5773773165144862
000770 92 d5 8a bf 91 af c0 3f b2 05 b4 6e 92 1e d9 3f
       0.13035795071270379 0.39249096690044916
000780 c5 63 c2 4f 0e 66 c1 3f 33 2a b0 9b c9 91 e3 3f
       0.13592699903963826 0.6115463295730649
000790 17 0d 14 b6 4c 82 d7 bf 11 ee 88 29 8a 9f c7 bf
       -0.3673278596981659 -0.1845562651450199
0007a0 bf 2a 12 49 74 03 d9 3f 83 43 bc 89 02 cc c3 bf
       0.3908358300765648 -0.15466338849412517
0007b0 41 c1 d3 f2 f7 6b dc bf f3 7f 40 aa 36 c8 da 3f
       -0.444089877258211 0.4184700644127581
0007c0 c2 f2 18 c1 d4 1a c8 bf e8 60 c9 00 56 72 b8 3f
       -0.18831881931864386 0.0954946281357284
0007d0 c6 4f 5f 31 0f 18 d6 3f fe b3 9c d6 cb da aa bf
       0.3452184660102343 -0.05245053286339639
0007e0 16 83 8b 63 5c df e4 3f 88 2e 07 64 fd ce 97 3f
       0.6522657341230083 0.02325054095289983
0007f0 19 b1 2d 65 fb e5 c7 bf f6 42 f6 8f e6 9e b5 3f
       -0.18670599403720514 0.08445588125892897

ba3 f8 [1, 16]
000000 49 90 c9 6f 23 17 36 bf 49 c8 36 69 2f d1 78 bf
       -0.0003370725169473716 -0.00605886955183805
000010 ed e3 3a 1e 7e 9b aa 3f dd e1 4d 2e f4 be 87 bf
       0.05196756476420448 -0.011594684279530415
000020 72 d9 47 fe 06 8e a5 3f 83 5e 87 aa 95 af 8e 3f
       0.04209920743953689 0.014983338610292002
000030 2c 75 43 4f b6 2a a1 3f be 28 1a 1b 5f e3 93 bf
       0.033528992820473696 -0.019422040967165037
000040 c0 18 a5 be 87 e8 6e 3f 52 2c 63 a6 a2 b5 80 bf
       0.0037729884399225477 -0.008158941939106299
000050 d1 1c 98 e7 df 63 8b 3f ad 0f c2 f9 ee 76 8a 3f
       0.013374089484399583 0.012922160145769935
000060 22 d2 e9 65 7d 2b 92 bf 3e 6a c9 60 61 cb 8b 3f
       -0.01774402555970956 0.013571511045644798
000070 f1 cb 33 a4 62 a5 8f 3f 29 80 e8 3a 3b cd 9a bf
       0.015452166210229353 -0.026173520536872417

w4 f8 [16, 1]
000000 5e aa f0 b2 8c 7c d7 bf da 2a e9 f7 e0 fc c8 bf
       -0.3669769046270285 -0.19521724801082635
000010 6f d3 77 61 2c bc e7 3f 71 ac 31 9e ff d8 ee 3f
       0.7417203811333887 0.9639890756346984
000020 a0 eb ea 35 8e 3e d5 bf 1d 57 ef af a5 80 e3 3f
       -0.33194308534046435 0.6094540058354344
000030 c8 07 32 49 ff a0 e3 3f 13 e9 bb 01 5d ba c8 bf
       0.6134029798124567 -0.19318735680264662
000040 9f 36 c0 52 7e 57 c1 3f 0a 9a 97 98 0b 5e a8 3f
       0.13548258820121803 0.04759250867555316
000050 0e cf 41 34 73 f4 f3 3f 60 42 22 be 6d e4 f0 bf
       1.2471801797191264 -1.055768721304183
000060 59 30 1c db 47 0e d9 bf 72 9d 5a 4a b1 b8 e5 3f
       -0.3914966239688105 0.678795476172054
000070 70 d0 fa 68 e4 c2 dc 3f 50 f9 45 80 15 e0 ec bf
       0.4493952775185397 -0.9023540025080283

ba4 f8 [1, 1]
000000 d6 a8 ce 95 e0 49 5b bf
       -0.0016655629362767785
